weight.pt (torch, 4671 bytes, 8 tensors)

fc1.weight f4 [10, 2]
0	0xbacc7fdc	-0.001560207
1	0x3d1d01a3	0.03833164
2	0x3eb37a57	0.35054275
3	0x3ea2600f	0.31713912
4	0xbe8be3a4	-0.27322114
5	0xbf0fdf24	-0.5619986
6	0xbea0823f	-0.3134937
7	0xbedfbdd6	-0.4369952
8	0xbb233f22	-0.0024909456
9	0x3e2c8ead	0.16851301
10	0xbf0c54eb	-0.54817075
11	0xbf384731	-0.7198363
12	0x3e27b3f5	0.16377242
13	0x3e855c76	0.26047105
14	0x3e80c5fd	0.25151053
15	0x3eb2b9ae	0.34907287
16	0x3e46422c	0.1936118
17	0x3e644142	0.22290519
18	0xbef4cd80	-0.47813034
19	0xbf36deee	-0.71433914

fc1.bias f4 [10]
0	0xbccad9c0	-0.024762034
1	0x3d80e864	0.06294325
2	0x3e7fc266	0.24976501
3	0x3e6ee8a0	0.23330927
4	0x3d003a6f	0.031305727
5	0x3ece293b	0.4026583
6	0x3d738197	0.05944976
7	0x3daddf6a	0.084898785
8	0x3d34d762	0.044150718
9	0x3eb9853c	0.36234462

fc2.weight f4 [20, 10]
0	0xbd94eb29	-0.07271416
1	0x3e31c4f1	0.17360283
2	0xbd29a5b4	-0.041417792
3	0x3cb098ed	0.021557296
4	0x3de41cc5	0.111383
5	0xbe04986d	-0.12948771
6	0x3e21e4a1	0.15809871
7	0x3e62dc11	0.22154261
8	0x3db20ab8	0.08693451
9	0xbdc3569e	-0.09538005
10	0xbc8b766c	-0.017024241
11	0xbca735e2	-0.020411436
12	0x3ec5c45b	0.3862637
13	0x3e88f09b	0.26746067
14	0x3e080276	0.13282189
15	0x3d913d75	0.070918
16	0xbdd3eec4	-0.10348275
17	0xbd74dac8	-0.05977896
18	0xbe08b351	-0.13349654
19	0x3e9bf7cb	0.3046249
20	0x3e60844e	0.2192547
21	0x3e251af8	0.16123569
22	0xbd1076ef	-0.035269674
23	0xbdc25660	-0.09489131
24	0x3d85947a	0.0652246
25	0xbd438a3b	-0.04773925
26	0x3e3e9045	0.18609722
27	0x3ebd830b	0.3701404
28	0x3e541d9f	0.20714425
29	0xbd3b7a08	-0.045770675
30	0xbe3d6053	-0.18493776
31	0x3df86405	0.12128452
32	0xbd4b31ce	-0.049608044
33	0xbde54e0e	-0.111965284
34	0x3c3d511a	0.011554981
35	0x3d5d3325	0.054003853
36	0xbbdbfb48	-0.0067133047
37	0xbd2d7462	-0.04234732
38	0xbdd9a468	-0.10627061
39	0xbdab126f	-0.08353125
40	0x3dfb568d	0.122723676
41	0xbca1db29	-0.019757824
42	0xbdc9107d	-0.09817598
43	0x3c917d59	0.017759966
44	0xbda0a094	-0.07843128
45	0xbe0d7583	-0.13814358
46	0xbd83a6aa	-0.06428273
47	0xbb89c8fc	-0.0042048674
48	0xbdfd9d5d	-0.1238353
49	0xbca5d0e0	-0.0202412
50	0xbd146f57	-0.036238994
51	0xbd5bb41f	-0.053638574
52	0x3e438072	0.19091967
53	0x3e57fa98	0.21091688
54	0xb9e6d8ab	-0.0004403045
55	0x3ebeb9d7	0.3725116
56	0xbb93b0a4	-0.004507141
57	0xbd4d9636	-0.05019208
58	0xbe12449a	-0.14283982
59	0x3e32845a	0.174333
60	0xbe0db3fc	-0.1383819
61	0xbe404aa7	-0.18778478
62	0x3ee1ca30	0.4409957
63	0x3e612441	0.21986486
64	0xbe1d4a88	-0.15360463
65	0x3ede45e9	0.43412712
66	0xbd83c8d3	-0.064347886
67	0xbe654d83	-0.2239285
68	0xbd3e6ff4	-0.046493486
69	0x3f12541b	0.57159585
70	0x3de67a26	0.11253767
71	0xbd8a212e	-0.0674461
72	0x3deedced	0.11663232
73	0x3e5f530e	0.21809027
74	0x3d9700c2	0.073731914
75	0x3ee876c3	0.45403108
76	0xbddd6db2	-0.10811938
77	0xbd7c2f9d	-0.061568845
78	0xbe12460d	-0.14284535
79	0x3e9b9ae9	0.30391625
80	0xbd782efd	-0.060591687
81	0x3d50634d	0.05087595
82	0x3dfb51a8	0.12271434
83	0xbdd2f566	-0.10300712
84	0x3defeee4	0.11715487
85	0xbc8f4b83	-0.017492061
86	0x3c14a5e1	0.009072752
87	0xbd705e0f	-0.05868345
88	0x3cd8ca48	0.026463643
89	0xbd8c137c	-0.06839654
90	0xbd86394d	-0.06553898
91	0x3c9f68ce	0.019459154
92	0xbd1afb86	-0.037837528
93	0x3d6fd7df	0.05855548
94	0x3dd7081f	0.10499596
95	0x3d73ea20	0.05954945
96	0xbd2d1b27	-0.042262223
97	0x3cea7b5a	0.028623272
98	0xbd0ce5d1	-0.034398858
99	0xbd837535	-0.0641884
100	0xbcc2a9ab	-0.023762545
101	0x3db9027a	0.090336755
102	0x3e3dad6a	0.18523183
103	0x3e194566	0.1496788
104	0x3e09f6ce	0.13473055
105	0xbe497611	-0.19673945
106	0xbe141658	-0.14461648
107	0xbdb127e4	-0.08650187
108	0xbe21e022	-0.15808156
109	0x3e63ddac	0.2225253
110	0x3df9443a	0.12171216
111	0x3ce919a9	0.028454619
112	0xbdc6365a	-0.096783355
113	0x3d0d9186	0.03456261
114	0x3e1d2672	0.15346697
115	0x3d127284	0.03575374
116	0x3d379903	0.044823658
117	0x3dd0acb1	0.10189188
118	0x3dde44a5	0.10852937
119	0xbd7ae29b	-0.061251264
120	0x3dc86972	0.09785737
121	0xbe11b87a	-0.14230528
122	0x3ebdabf0	0.3704524
123	0x3eaf3116	0.34217137
124	0x3bb319aa	0.005465706
125	0x3f0c7dc7	0.5487942
126	0xbde9b97f	-0.11412334
127	0xbda6751e	-0.08127807
128	0xbe49768e	-0.19674131
129	0x3ed21b4e	0.41036457
130	0xbb3ce6bb	-0.002882405
131	0x3dc80508	0.09766585
132	0xbc066316	-0.008202335
133	0x3d874e8f	0.06606781
134	0x3daf10e8	0.085481465
135	0xbda22b1c	-0.07918379
136	0x3d13b099	0.03605709
137	0xbe4d85c0	-0.20070553
138	0xbd1629f4	-0.036661103
139	0xbcd00d1a	-0.025396872
140	0xbc2d2aaf	-0.010569259
141	0x3e123888	0.14279377
142	0xbcc09197	-0.023506923
143	0xbd5307c7	-0.05152109
144	0x3e186a30	0.14884257
145	0xbcb19f72	-0.021682475
146	0x3e6495a6	0.22322711
147	0x3d9a9c5b	0.07549354
148	0xbd91c03a	-0.071167424
149	0xbdfeab95	-0.124350704
150	0xbd595441	-0.053058866
151	0xbc90b9bc	-0.01766669
152	0x3ddbd62f	0.10734212
153	0xbd376b70	-0.044780195
154	0x3c42e641	0.011895717
155	0xbce9aa36	-0.028523546
156	0xbd330fd0	-0.04371625
157	0x3c564dd4	0.013080079
158	0xbcfb0978	-0.030644163
159	0xbdae57c9	-0.085128374
160	0x3d87e2f3	0.06635084
161	0xbe62d14d	-0.22150154
162	0x3b003410	0.0019562282
163	0xbd89a5d5	-0.06721083
164	0xba52c91a	-0.0008040831
165	0xbe0f7bc3	-0.14012055
166	0xbd8fd591	-0.070231564
167	0x3cfd0ca0	0.03088981
168	0x3c363833	0.011121797
169	0xbb9b502a	-0.004739781
170	0xbddaf866	-0.106919095
171	0xbe2b63f1	-0.16737343
172	0x3c1ff248	0.009762354
173	0x3e3de121	0.18542911
174	0xbd90bde4	-0.07067469
175	0x3ee21fd2	0.44164902
176	0xbd253962	-0.040337928
177	0xbcfc578a	-0.03080346
178	0xbd7896b3	-0.060690593
179	0x3ead4297	0.33839867
180	0xbd01fb71	-0.031733934
181	0xbe0e1e72	-0.13878801
182	0x3cb5a800	0.022174835
183	0xbd3fcc1f	-0.046825524
184	0xba8ec748	-0.0010893131
185	0xbc9b9456	-0.01899163
186	0xbd882339	-0.06647343
187	0xbe7941d1	-0.24341513
188	0xbdd031fa	-0.10165782
189	0x3e391923	0.18075995
190	0xbd70c729	-0.058783684
191	0x3ec741bd	0.38917342
192	0xbdf215a7	-0.11820536
193	0xbdcf7c21	-0.101310976
194	0x3df7ce1d	0.1209986
195	0xbdb1cb46	-0.086813495
196	0x3dad32bc	0.084569424
197	0x3e620e11	0.22075678
198	0x3d95ef1a	0.07320996
199	0xbd85e915	-0.065385975

fc2.bias f4 [20]
0	0x3d3c2937	0.045937743
1	0x3e2ba22f	0.16761087
2	0x3ddea7cb	0.10871848
3	0xbd18255b	-0.037145
4	0xbb1d1e70	-0.002397444
5	0x3e04ea12	0.12979916
6	0x3e4c4a43	0.19950204
7	0x3e590972	0.2119501
8	0xbbe083e1	-0.0068516587
9	0xbd64e52d	-0.05588262
10	0x3daf263f	0.08552217
11	0xbb65b678	-0.0035051387
12	0x3e63d719	0.22250022
13	0xbc124276	-0.008926978
14	0x3d65798e	0.056024127
15	0xbbb769e4	-0.00559734
16	0xbc241b57	-0.010016284
17	0x3e2473a7	0.16059743
18	0x3d9209c3	0.07130768
19	0x3e660a12	0.22464779

fc3.weight f4 [10, 20]
0	0xbde63cbb	-0.11242052
1	0x3e7cbddf	0.24681805
2	0xbdad9e11	-0.084774144
3	0xbdb3bd09	-0.0877629
4	0xbda32a18	-0.07967013
5	0x3e9c3a5a	0.3051327
6	0x3edba40d	0.42898598
7	0x3edb9617	0.42887947
8	0xbe196b29	-0.14982285
9	0x3db910ab	0.09036382
10	0x3e103c73	0.1408556
11	0xbdce3dac	-0.10070357
12	0x3eca8ed8	0.39562106
13	0xbd7a4716	-0.06110295
14	0xbe4d6f75	-0.20062049
15	0x3d4498ee	0.047997408
16	0xbe0164a3	-0.12636046
17	0x3eb4bff2	0.35302693
18	0xbce8f562	-0.02843732
19	0xbd7fbc30	-0.06243533
20	0xbcbe1d89	-0.023207443
21	0x3d780e41	0.06056047
22	0xbe8741e9	-0.26417473
23	0xbd8589af	-0.06520402
24	0x3e5d5089	0.21612753
25	0x3e289612	0.16463497
26	0x3f10f6be	0.566265
27	0x3e7222f4	0.23646146
28	0xbb7a4172	-0.003818598
29	0x3d2fee56	0.042951904
30	0x3e2f2847	0.17105208
31	0x3ce95ba6	0.028486084
32	0x3f059660	0.5218258
33	0xbc130aa4	-0.008974705
34	0xbdff24c0	-0.124581814
35	0x3e16b21f	0.14716385
36	0x3d711842	0.058861025
37	0x3e467098	0.19378889
38	0xbd85c194	-0.06531063
39	0xbeb81cca	-0.35959464
40	0xbc19bf6b	-0.0093840165
41	0x3e2cca4b	0.16874044
42	0xbde471b4	-0.111545
43	0xbe393b48	-0.1808902
44	0x3c260471	0.010132895
45	0x3da00b53	0.0781466
46	0xbdbaab38	-0.09114689
47	0xbbe5674e	-0.0070008403
48	0x3bd0550a	0.0063577937
49	0x3d0c5c73	0.034267854
50	0xbdcb5d54	-0.0992991
51	0x3e38edd7	0.18059479
52	0x3e0531b3	0.1300724
53	0xbc0bd1bd	-0.008533892
54	0xbde3d257	-0.111241035
55	0xbd08fc25	-0.03344359
56	0xbe4a1c84	-0.1973744
57	0x3de952fb	0.113927804
58	0xbba0171e	-0.0048855683
59	0x3d0a41a5	0.03375401
60	0x3e0cc63d	0.13747497
61	0x3bcfdcba	0.0063434513
62	0xbd85a2c7	-0.06525188
63	0xbd815db9	-0.06316704
64	0xbc938c17	-0.018011136
65	0xbd23b1d1	-0.0399645
66	0xbd529486	-0.051411174
67	0x3c1c73ec	0.009549122
68	0x3df0efc4	0.11764482
69	0x3e0c3a72	0.1369417
70	0x3e17c9b0	0.14823031
71	0x3dffe735	0.12495271
72	0xbd5c1909	-0.053734813
73	0x3def5085	0.1168528
74	0xbd39168d	-0.04518752
75	0xbe3bb137	-0.18329321
76	0x3d8c0d75	0.06838504
77	0x3d829280	0.06375599
78	0x3d2dddfd	0.042448033
79	0x3dffa31f	0.12482285
80	0xbb9b94bd	-0.0047479556
81	0x3e9e4b17	0.30916664
82	0xbda02f48	-0.07821518
83	0xbbec5378	-0.0072120987
84	0x3aaf992e	0.0013397092
85	0x3e9a668b	0.3015636
86	0x3e1e5208	0.1546098
87	0x3e41106c	0.1885392
88	0xbd6a3bed	-0.057186056
89	0xbd69d1a6	-0.057084702
90	0xbcbd2440	-0.023088574
91	0xbe020e05	-0.1270066
92	0x3ea760d4	0.32691061
93	0xbde542b8	-0.11194366
94	0x3d241e7a	0.040068127
95	0x3d22ce49	0.03974751
96	0xbdbd7a1f	-0.092518084
97	0x3e7bb69f	0.24581383
98	0x3e32523f	0.17414187
99	0xbe178f92	-0.14800861
100	0x3ecd6439	0.40115526
101	0xbe2659e8	-0.16245234
102	0x3eb6aa4b	0.35676798
103	0x3cbf97fb	0.0233879
104	0x3d86adb9	0.06576104
105	0xbe52c85e	-0.20584247
106	0xbc63b23d	-0.013897476
107	0xbe1de81f	-0.15420578
108	0xbd8179a1	-0.06322027
109	0x3c46a45f	0.01212415
110	0x3c1f6a2c	0.009729903
111	0x3d743f9f	0.059630986
112	0xbd438e48	-0.04774311
113	0xbd8066f3	-0.06269636
114	0x3d8db5d7	0.06919449
115	0xbe07f337	-0.13276373
116	0x3d0e32a7	0.034716275
117	0xbd96569d	-0.07340739
118	0xbda886de	-0.08228849
119	0x3eddef91	0.43346837
120	0xbdaa77a3	-0.083236
121	0x3e1d2bae	0.15348694
122	0xbc924842	-0.01785672
123	0x3af8a23d	0.0018969249
124	0x3c1f7f50	0.0097349435
125	0x3cca652a	0.024706442
126	0x3e8beafa	0.2732771
127	0x3e760b03	0.24027638
128	0xbe1d58e3	-0.15365939
129	0x3dbd0ae6	0.09230594
130	0x3e278bd4	0.16361934
131	0x3d6cea1e	0.05784046
132	0x3e0f1752	0.1397374
133	0xbdda39c8	-0.10655552
134	0xbcd7f4f2	-0.026361916
135	0x3d525cfb	0.051358204
136	0x3ce8c0d8	0.028412268
137	0x3e22aefc	0.15887064
138	0x3e086c2f	0.13322519
139	0xbcbdb244	-0.023156293
140	0xbe0b9cff	-0.13634108
141	0x3ecb7322	0.39736277
142	0xbdf1dd8e	-0.11809836
143	0xbcf6b054	-0.030113377
144	0xbd10ad93	-0.035321783
145	0x3e860d65	0.26182094
146	0x3ecbab55	0.39779153
147	0x3e571745	0.2100497
148	0x3e03162e	0.1280143
149	0xbe1d331e	-0.15351531
150	0x3a880c18	0.0010379581
151	0xbd6c2c56	-0.05765947
152	0x3f04a8a5	0.5181983
153	0x3dd2c5ec	0.10291657
154	0xbdd8439f	-0.10559773
155	0xbdac20d6	-0.084047005
156	0xbe1d7ccc	-0.15379637
157	0x3e86d339	0.26333025
158	0x3e0636b3	0.13106804
159	0xbe0fdde6	-0.14049491
160	0x3e4c600e	0.19958517
161	0xbc55b31f	-0.013043194
162	0xbd7983e7	-0.060916808
163	0xbbdc8a4e	-0.0067303544
164	0xbdb441ac	-0.088015884
165	0x3db977f3	0.090560816
166	0x3e2c37ef	0.16818212
167	0x3d9dc7d5	0.077041306
168	0x3b9da787	0.0048112306
169	0xbe1570dc	-0.14593834
170	0x3e8c5f2e	0.27416366
171	0xbd197ea4	-0.03747429
172	0xbdbb8534	-0.09156266
173	0x3d80c9bd	0.062884785
174	0xbda37818	-0.079818904
175	0x3d709918	0.05873975
176	0x3b7757ba	0.0037741498
177	0x3dcdb82b	0.10044893
178	0xba6aabc9	-0.00089519896
179	0xbdde34ce	-0.108499154
180	0x3e25246b	0.16127174
181	0xbdb60508	-0.088876784
182	0xbd470cf6	-0.048596345
183	0xbd694077	-0.056946244
184	0x3ddc0cc9	0.10744626
185	0xbd8d676f	-0.06904494
186	0x3e69a59b	0.2281708
187	0x3e5b58e3	0.21420626
188	0x3b6e572f	0.0036367883
189	0xbcf37721	-0.029719891
190	0x3cdf820b	0.027283689
191	0xbcbaa6f8	-0.022784695
192	0x3d7d0ddf	0.061780807
193	0x3c6a0ba4	0.014285002
194	0xbd9defe3	-0.077117704
195	0x3c130f6b	0.008975844
196	0x3d6a8aac	0.057261154
197	0x3d4753df	0.04866397
198	0x3cd82e32	0.026389215
199	0xbd619b8a	-0.055079974

fc3.bias f4 [10]
0	0x3e03d866	0.12875518
1	0x3df263ed	0.118354656
2	0x3c350aa3	0.011049899
3	0xbb8afbc7	-0.00424144
4	0x3d9e2794	0.07722393
5	0x3ebc25db	0.3674763
6	0x3d8b3ab7	0.06798308
7	0x3e2ee850	0.17080808
8	0xbcddc084	-0.027069338
9	0xbd8ae42e	-0.06781803

fc4.weight f4 [2, 10]
0	0xbf2893fd	-0.6585081
1	0xbf1f639f	-0.62261385
2	0xbe252aa2	-0.16129544
3	0x3d4e0b80	0.050303936
4	0xbe92ce7f	-0.2867317
5	0x3f22900b	0.6350104
6	0xbebedcc0	-0.37277794
7	0xbf2a68f9	-0.66566426
8	0xbe6dda0e	-0.23227713
9	0xbe1c2bd5	-0.15251096
10	0x3f1bfbda	0.6093117
11	0x3f13d3b5	0.57744914
12	0x3d562cd9	0.052288864
13	0xbdf7e3ec	-0.121040195
14	0x3f055e97	0.5209746
15	0xbee04640	-0.43803596
16	0x3e7615de	0.24031779
17	0x3f0cefc9	0.55053383
18	0x3d54bb0e	0.0519362
19	0x3e09c51b	0.13454096

fc4.bias f4 [2]
0	0x3f92bff2	1.1464827
1	0xbf92bff2	-1.1464827
